Nino_data.pth (torch, 4188 bytes, 6 tensors)

l1.weight f4 [8, 27]
0	0x3e8296e6	0.2550575
1	0x3eb131d1	0.3460832
2	0x3e803371	0.25039247
3	0x3f0b0de0	0.54318047
4	0x3eb21793	0.3478361
5	0xbe611cc8	-0.21983635
6	0xbe1f09b2	-0.15531042
7	0x3ee24096	0.441899
8	0x3ecfefd6	0.40612668
9	0x3f14d3b9	0.58135563
10	0x3f2d4892	0.6768886
11	0x3f3b26dc	0.7310617
12	0x3f30000f	0.6875009
13	0x3e1e3c35	0.15452655
14	0x3e895934	0.2682587
15	0x3ee5c278	0.4487493
16	0x3dd19e80	0.102353096
17	0x3dd22f6c	0.10262951
18	0x3ea927e5	0.3303825
19	0x3ec1d10e	0.3785481
20	0x3e7cbff2	0.24682596
21	0x3eee0ae4	0.46492684
22	0x3e2bef5c	0.16790527
23	0x3e5def16	0.21673235
24	0x3eb4c5c8	0.35307145
25	0x3ea2ab92	0.31771523
26	0xbdd06dff	-0.1017723
27	0x3e378349	0.17921175
28	0xbe8dfce2	-0.27731997
29	0x3ecc699a	0.39924318
30	0x3efcbd23	0.4936305
31	0xbee4b1c7	-0.44666883
32	0x3e90f523	0.28312024
33	0x3efda043	0.49536332
34	0xbee4b0b7	-0.44666073
35	0x3ede6d4b	0.4344276
36	0x3f11f925	0.5702079
37	0x3f2a53ec	0.66534305
38	0x3f55de96	0.83542764
39	0x3f259f8b	0.6469657
40	0x3ef053bd	0.46938887
41	0x3e25d23e	0.16193482
42	0x3eb8764e	0.3602776
43	0xbdd0f1ad	-0.10202346
44	0x3ee1482d	0.44000378
45	0xbdc6856f	-0.09693419
46	0xbddde28c	-0.10834226
47	0xbed088e5	-0.40729442
48	0x3f1bd1aa	0.60866797
49	0xbe4e9867	-0.20175324
50	0x3efaffa7	0.49023172
51	0x3e974e43	0.29551896
52	0x3e8d85cd	0.27641144
53	0x3ef0711d	0.469613
54	0x3e8f3715	0.27971712
55	0xbe5e3ef1	-0.21703698
56	0x3e262885	0.16226394
57	0xbe02d3a5	-0.12776048
58	0xbe8b7877	-0.27240345
59	0x3ec27267	0.37977907
60	0x3e781b07	0.2422906
61	0xbe8b73ac	-0.27236688
62	0x3eb7440e	0.3579411
63	0x3ef9a26e	0.48756737
64	0x3efb4e95	0.4908339
65	0x3ecdb23e	0.4017505
66	0x3edd26e2	0.43193728
67	0x3ec1888a	0.37799484
68	0x3ec54c59	0.3853481
69	0x3f0ab60f	0.5418405
70	0xbd987ac4	-0.07445291
71	0x3ee53a44	0.44771016
72	0xbd8ea219	-0.069645114
73	0xbea7269c	-0.32646644
74	0xbec5afc4	-0.3861066
75	0xbcaa732f	-0.020806877
76	0xbd154434	-0.036441997
77	0x3e915a86	0.28389376
78	0x3ef331e6	0.47499007
79	0x3eb2633e	0.3484134
80	0x3f0c06fe	0.5469817
81	0x3dece31a	0.11566754
82	0xbe2faaf2	-0.17155054
83	0xbd3bcf1c	-0.04585181
84	0xbd5d92e4	-0.054095164
85	0x3e0f6cf3	0.14006405
86	0xbcfc1210	-0.030770332
87	0xbe14203f	-0.14465426
88	0x3e0ea395	0.13929589
89	0xbdf086ce	-0.11744462
90	0xbd648440	-0.055790186
91	0xbdb18d33	-0.0866951
92	0xbe001b67	-0.12510453
93	0x3e17decd	0.14831086
94	0xbe23290e	-0.1593363
95	0x3d48c7c8	0.04901865
96	0xbda24bba	-0.079246
97	0xbdb3f890	-0.08787644
98	0x3da80a90	0.0820514
99	0xbd1a4adc	-0.037669048
100	0xbd988c12	-0.07448591
101	0x3d50f644	0.051016107
102	0x3da68a92	0.08131899
103	0x3dec9802	0.11552431
104	0xbe25f254	-0.16205722
105	0x3e0dfa3c	0.13864988
106	0x3da65c56	0.081230804
107	0xbe03d51d	-0.12874265
108	0x3d465f58	0.04843077
109	0x3d864272	0.06555642
110	0xbdaa6837	-0.08320659
111	0xbe40104f	-0.18756221
112	0xbde30053	-0.11084046
113	0x3c787628	0.015164889
114	0xbd2efcd0	-0.04272157
115	0xbdaca981	-0.08430768
116	0xbcb2c728	-0.02182348
117	0x3d5aab6d	0.05338614
118	0x3cee74fe	0.02910852
119	0xbd453918	-0.048150152
120	0xbb0122c0	-0.001970455
121	0x3d368f9b	0.044570547
122	0x3da05a3b	0.0782971
123	0x3d0432cd	0.03227501
124	0x3ea53cdb	0.32272992
125	0x3d47a5f7	0.04874226
126	0x3e1a1487	0.15046893
127	0x3ecb20f3	0.39673576
128	0xbd859ca8	-0.065240204
129	0xbdaba4c8	-0.08381039
130	0x3e2eb1e5	0.17060049
131	0xbd497c7c	-0.049190983
132	0xbc8e6fc8	-0.017387286
133	0xbd8a3302	-0.0674801
134	0xbd73be03	-0.05950738
135	0x3f08437f	0.5322799
136	0xbe285675	-0.1643923
137	0xbdea0802	-0.114273086
138	0xbe5c7efc	-0.21532816
139	0xbe8b6492	-0.27225167
140	0x3f2aeb90	0.6676569
141	0x3f358908	0.7091222
142	0xbe8b5ef3	-0.27220878
143	0x3ea83b5f	0.32857797
144	0x3e726808	0.23672497
145	0x3e906b53	0.28206882
146	0x3ec5ad1b	0.38608631
147	0x3eacb0a7	0.33728525
148	0x3f310be3	0.6915876
149	0x3ef73c3a	0.48288137
150	0x3ea5b307	0.3236315
151	0xbd1613b2	-0.036639877
152	0x3f17eaef	0.59342855
153	0xbe806ea8	-0.25084424
154	0xbea198eb	-0.3156198
155	0xbdd78a28	-0.10524398
156	0x3dfe84c5	0.124276675
157	0xbcb732f3	-0.022363162
158	0x3e8b6427	0.27224848
159	0x3efaa693	0.4895521
160	0x3a242749	0.00062619575
161	0x3f10e831	0.56604296
162	0x3f050c99	0.5197235
163	0x3f121760	0.5706692
164	0xbe9db9ee	-0.30805916
165	0xbec23670	-0.37932158
166	0x3efc0b56	0.492274
167	0x3ec8410c	0.39112127
168	0x3ea03055	0.31286874
169	0x3f08edd0	0.53487873
170	0xbdc29a4d	-0.09502087
171	0xbe97778e	-0.295834
172	0xbec82fb0	-0.39098883
173	0xbec82858	-0.3909328
174	0xbec8356c	-0.39103258
175	0xbd58bf04	-0.05291654
176	0x3f19aa04	0.6002505
177	0x3eb8ccdc	0.36093795
178	0x3eb47bb0	0.35250616
179	0x3f33ebf7	0.7028193
180	0x3e8413ae	0.25796264
181	0x3e19e649	0.15029253
182	0x3e6d56f9	0.23177709
183	0xbed94ed5	-0.42442957
184	0x3ea56cd7	0.323096
185	0x3ed0d843	0.40789995
186	0x3f1ebdc5	0.62008315
187	0x3e190612	0.14943722
188	0x3f1c6f36	0.61107194
189	0xbd8fb310	-0.07016575
190	0x3e991e45	0.29905906
191	0x3f0984f7	0.53718513
192	0x3f0b515a	0.5442101
193	0x3f191121	0.5979176
194	0xbf16efea	-0.5895983
195	0xbe92dd55	-0.28684488
196	0x3f1b1fda	0.60595477
197	0x3f10ccd8	0.56562567
198	0x3f1f06ca	0.62119734
199	0x3ed78bb8	0.42098784
200	0x3f0769f7	0.52896065
201	0x3ec7058d	0.38871422
202	0x3c554c39	0.013018661
203	0xbdff4509	-0.12464339
204	0x3d98545e	0.07437967
205	0x3ebe90d1	0.3721986
206	0xbf0358a4	-0.5130713
207	0x3edc13ea	0.42983943
208	0x3eaa7076	0.33288926
209	0x3e8ee837	0.2791154
210	0x3e9ae4cf	0.30252692
211	0x3edb31fa	0.42811567
212	0x3a7d2500	0.00096566975
213	0xbe105867	-0.14096223
214	0x3e8eecfd	0.27915183
215	0xbe8a6fdd	-0.2703847

l1.bias f4 [8]
0	0x3f3f20a5	0.74659187
1	0x3ee4b3c7	0.4466841
2	0x3e8b7408	0.27236962
3	0xbe5c2288	-0.21497548
4	0xbd017788	-0.031608135
5	0x3e8b5cf3	0.27219352
6	0x3ec82f38	0.39098525
7	0x3f357a93	0.7089016

l2.weight f4 [8, 8]
0	0x3f0d9aaf	0.55314153
1	0xbf29f31f	-0.663866
2	0xbf6eeee6	-0.9333328
3	0xbe708180	-0.234869
4	0x3b6d1e47	0.0036181377
5	0xbf591bfd	-0.8480833
6	0x3f729bf5	0.9476922
7	0x3f50c95c	0.8155725
8	0x3be827a2	0.0070848027
9	0x3e601782	0.21883968
10	0xbe6a06c3	-0.22854142
11	0xbe09a016	-0.13439974
12	0xbe2a8045	-0.16650493
13	0xbd7ce161	-0.061738376
14	0x3e34c857	0.17654549
15	0xbe91c3f5	-0.28469816
16	0x3e8a01bf	0.26954457
17	0x3f675f65	0.90379936
18	0x3f8141c9	1.0098201
19	0xbe27b827	-0.16378842
20	0xbf01977b	-0.50621766
21	0x3f3853a8	0.7200265
22	0x3a4ad18e	0.00077369146
23	0x3e3cd25f	0.18439625
24	0xbe7fd230	-0.24982524
25	0x3e0b69b4	0.13614541
26	0x3dd8cf10	0.10586369
27	0x3e7a685a	0.2445387
28	0xbe46efee	-0.19427463
29	0xbdbd69b0	-0.09248674
30	0xbeb3ebc9	-0.35140827
31	0x3d3f3678	0.046682805
32	0x3e7d2fb0	0.24725223
33	0xbebc891f	-0.36823365
34	0xbf37ddd4	-0.7182286
35	0xbe9be851	-0.3045068
36	0x3e1c1cb8	0.1524533
37	0xbf34bfac	-0.7060497
38	0x3fd3af29	1.653783
39	0x3eca3c6f	0.39499232
40	0x3f794bf6	0.9738153
41	0xbb64f74a	-0.0034937435
42	0xbd312fc7	-0.043258455
43	0x3e093dd0	0.13402486
44	0x3ecdbea3	0.40184507
45	0xbeb83df1	-0.35984758
46	0xbf0e6f76	-0.55638826
47	0x3f7706cc	0.96494746
48	0x3f4f9d2b	0.81099194
49	0x3f07bd37	0.53023094
50	0xbe5033b9	-0.2033223
51	0xbeafb76c	-0.34319627
52	0xbe724bb1	-0.23661686
53	0xbea63640	-0.32463264
54	0xbf5a40d6	-0.8525518
55	0x3f918287	1.1367959
56	0x3efbdd65	0.49192348
57	0x3f184b14	0.5948956
58	0x3f3a4d74	0.72774434
59	0xbe88e827	-0.26739618
60	0xbe957a83	-0.29195032
61	0x3ef5df54	0.48021948
62	0x3f2d7464	0.67755723
63	0xbf65d5cd	-0.8977936

l2.bias f4 [8]
0	0x3e58afac	0.21160764
1	0xbeb24517	-0.34818336
2	0x3e376f1f	0.17913483
3	0xbe0ec2f8	-0.13941562
4	0x3f0cf6a9	0.55063874
5	0x3f334e05	0.70040923
6	0x3f51835e	0.81841075
7	0x3db0c871	0.08631981

l3.weight f4 [3, 8]
0	0x3f5e5310	0.86845493
1	0x3e278a11	0.16361262
2	0xbf5ad02f	-0.8547391
3	0xbe616fe9	-0.22015347
4	0x3f3f214f	0.746602
5	0x3e90a139	0.28248003
6	0xbe4251f8	-0.18976581
7	0xbf5865b0	-0.8453016
8	0xbf467af4	-0.7753136
9	0x3e5f0084	0.2177754
10	0x3ea94e8c	0.3306774
11	0xbe667456	-0.22505316
12	0xbf9ce062	-1.2255976
13	0x3edfa158	0.43677783
14	0x3eba8bf3	0.36434898
15	0xbe9a1f64	-0.30102074
16	0xbf1143eb	-0.5674426
17	0xbe8b2665	-0.2717773
18	0x3ebbf295	0.36708513
19	0x3ea595cf	0.32340857
20	0xbedac55a	-0.42728692
21	0xbf4f04d6	-0.80866754
22	0xbf70875c	-0.9395654
23	0x3f50a4a4	0.8150122

l3.bias f4 [3]
0	0xbe8e22b1	-0.27760842
1	0xbd449f74	-0.04800363
2	0xbdfa0cc3	-0.12209465
